…
Start Tensorboard with "tensorboard --logdir runs/", view at http://localhost:6006/
Hyperparameters {'lr0': 0.01, 'momentum': 0.937, 'weight_decay': 0.0005, 'giou': 0.05, 'cls': 0.5, 'cls_pw': 1.0, 'obj': 1.0, 'obj_pw': 1.0, 'iou_t': 0.2, 'anchor_t': 4.0, 'fl_gamma': 0.0, 'hsv_h': 0.015, 'hsv_s': 0.7, 'hsv_v': 0.4, 'degrees': 0.0, 'translate': 0.5, 'scale': 0.8, 'shear': 0.0, 'perspective': 0.0, 'flipud': 0.0, 'fliplr': 0.5, 'mixup': 0.2}
Overriding models/yolov4-p7.yaml nc=80 with nc=4

                 from  n    params  module                                  arguments                     
  0                -1  1      1160  models.common.Conv                      [3, 40, 3, 1]                 
  1                -1  1     28960  models.common.Conv                      [40, 80, 3, 2]                
  2                -1  1     30960  models.common.BottleneckCSP             [80, 80, 1]                   
  3                -1  1    115520  models.common.Conv                      [80, 160, 3, 2]               
  4                -1  1    251360  models.common.BottleneckCSP             [160, 160, 3]                 
  5                -1  1    461440  models.common.Conv                      [160, 320, 3, 2]              
  6                -1  1   4081600  models.common.BottleneckCSP             [320, 320, 15]                
  7                -1  1   1844480  models.common.Conv                      [320, 640, 3, 2]              
  8                -1  1  16304000  models.common.BottleneckCSP             [640, 640, 15]                
  9                -1  1   7375360  models.common.Conv                      [640, 1280, 3, 2]             
 10                -1  1  32382720  models.common.BottleneckCSP             [1280, 1280, 7]               
 11                -1  1  14748160  models.common.Conv                      [1280, 1280, 3, 2]            
 12                -1  1  32382720  models.common.BottleneckCSP             [1280, 1280, 7]               
 13                -1  1  14748160  models.common.Conv                      [1280, 1280, 3, 2]            
 14                -1  1  32382720  models.common.BottleneckCSP             [1280, 1280, 7]               
 15                -1  1  11888640  models.common.SPPCSP                    [1280, 640, 1]                
 16                -1  1    410880  models.common.Conv                      [640, 640, 1, 1]              
 17                -1  1         0  torch.nn.modules.upsampling.Upsample    [None, 2, 'nearest']          
 18                -6  1    820480  models.common.Conv                      [1280, 640, 1, 1]             
 19          [-1, -2]  1         0  models.common.Concat                    [1]                           
 20                -1  1  14348800  models.common.BottleneckCSP2            [1280, 640, 3]                
 21                -1  1    410880  models.common.Conv                      [640, 640, 1, 1]              
 22                -1  1         0  torch.nn.modules.upsampling.Upsample    [None, 2, 'nearest']          
 23               -13  1    820480  models.common.Conv                      [1280, 640, 1, 1]             
 24          [-1, -2]  1         0  models.common.Concat                    [1]                           
 25                -1  1  14348800  models.common.BottleneckCSP2            [1280, 640, 3]                
 26                -1  1    205440  models.common.Conv                      [640, 320, 1, 1]              
 27                -1  1         0  torch.nn.modules.upsampling.Upsample    [None, 2, 'nearest']          
 28               -20  1    205440  models.common.Conv                      [640, 320, 1, 1]              
 29          [-1, -2]  1         0  models.common.Concat                    [1]                           
 30                -1  1   3590400  models.common.BottleneckCSP2            [640, 320, 3]                 
 31                -1  1     51520  models.common.Conv                      [320, 160, 1, 1]              
 32                -1  1         0  torch.nn.modules.upsampling.Upsample    [None, 2, 'nearest']          
 33               -27  1     51520  models.common.Conv                      [320, 160, 1, 1]              
 34          [-1, -2]  1         0  models.common.Concat                    [1]                           
 35                -1  1    899200  models.common.BottleneckCSP2            [320, 160, 3]                 
 36                -1  1    461440  models.common.Conv                      [160, 320, 3, 1]              
 37                -2  1    461440  models.common.Conv                      [160, 320, 3, 2]              
 38          [-1, 30]  1         0  models.common.Concat                    [1]                           
 39                -1  1   3590400  models.common.BottleneckCSP2            [640, 320, 3]                 
 40                -1  1   1844480  models.common.Conv                      [320, 640, 3, 1]              
 41                -2  1   1844480  models.common.Conv                      [320, 640, 3, 2]              
 42          [-1, 25]  1         0  models.common.Concat                    [1]                           
 43                -1  1  14348800  models.common.BottleneckCSP2            [1280, 640, 3]                
 44                -1  1   7375360  models.common.Conv                      [640, 1280, 3, 1]             
 45                -2  1   3687680  models.common.Conv                      [640, 640, 3, 2]              
 46          [-1, 20]  1         0  models.common.Concat                    [1]                           
 47                -1  1  14348800  models.common.BottleneckCSP2            [1280, 640, 3]                
 48                -1  1   7375360  models.common.Conv                      [640, 1280, 3, 1]             
 49                -2  1   3687680  models.common.Conv                      [640, 640, 3, 2]              
 50          [-1, 15]  1         0  models.common.Concat                    [1]                           
 51                -1  1  14348800  models.common.BottleneckCSP2            [1280, 640, 3]                
 52                -1  1   7375360  models.common.Conv                      [640, 1280, 3, 1]             
 53[36, 40, 44, 48, 52]  1    172980  models.yolo.Detect                      [4, [[13, 17, 22, 25, 27, 66, 55, 41], [57, 88, 112, 69, 69, 177, 136, 138], [136, 138, 287, 114, 134, 275, 268, 248], [268, 248, 232, 504, 445, 416, 640, 640], [812, 393, 477, 808, 1070, 908, 1408, 1408]], [320, 640, 1280, 1280, 1280]]
Traceback (most recent call last):
  File "train.py", line 443, in <module>
…
